…
2018-08-23 16:20:25.266680: I tensorflow/core/common_runtime/gpu/gpu_device.cc:1045] Creating TensorFlow device (/gpu:0) -> (device: 0, name: Tesla K80, pci bus id: 0000:00:04.0)
51724/51724 [==============================] - 87s - loss: 0.0183 - val_loss: 0.0236
Epoch 2/3
51724/51724 [==============================] - 64s - loss: 0.0155 - val_loss: 0.0226
Epoch 3/3
51724/51724 [==============================] - 64s - loss: 0.0138 - val_loss: 0.0199
dict_keys(['val_loss', 'loss'])
_________________________________________________________________
Layer (type)                 Output Shape              Param #
=================================================================
lambda_1 (Lambda)            (None, 160, 320, 3)       0
_________________________________________________________________
cropping2d_1 (Cropping2D)    (None, 65, 320, 3)        0
_________________________________________________________________
conv2d_1 (Conv2D)            (None, 31, 158, 24)       1824
_________________________________________________________________
conv2d_2 (Conv2D)            (None, 14, 77, 36)        21636
_________________________________________________________________
conv2d_3 (Conv2D)            (None, 5, 37, 48)         43248
_________________________________________________________________
conv2d_4 (Conv2D)            (None, 3, 35, 64)         27712
_________________________________________________________________
conv2d_5 (Conv2D)            (None, 1, 33, 64)         36928
_________________________________________________________________
flatten_1 (Flatten)          (None, 2112)              0
_________________________________________________________________
dense_1 (Dense)              (None, 100)               211300
_________________________________________________________________
dense_2 (Dense)              (None, 50)                5050
_________________________________________________________________
dense_3 (Dense)              (None, 10)                510
_________________________________________________________________
dense_4 (Dense)              (None, 1)                 11
=================================================================
Total params: 348,219
Trainable params: 348,219
Non-trainable params: 0